encoders_and_tools/training_3di_gpu_9f/decoder.pt (torch, 7535 bytes, 12 tensors)

weight f4 [9, 2]
000000 91 79 00 be cb 2a 15 3f 19 c0 1f 3f 07 4b bb be
       -0.12546374 0.5826842 0.6240249 -0.3658068
000010 16 25 2b 3e e7 ba 40 3f c7 ca ef be 54 85 b0 3e
       0.16713366 0.7528519 -0.46834394 0.3447672
000020 c1 43 04 3f f7 be 15 be bd 6f bd bd 78 26 cf be
       0.51665884 -0.14623629 -0.09249828 -0.40459037
000030 6d e1 00 bc 6c a6 21 c0 0d be 10 3e b6 e2 c0 3e
       -0.007866246 -2.5257826 0.14134999 0.37672967
000040 ce 35 92 bf 3f 05 ad 3d
       -1.142267 0.08448266

bias f4 [9]
000000 f8 04 1f 3f 2e 1e 25 bf 62 70 eb bd 8e 91 38 3f
       0.62116957 -0.64499176 -0.11496045 0.720971
000010 9d 91 a9 3e 43 7d 68 3c 72 4d 2d bf 37 c7 e5 3e
       0.33118907 0.014190021 -0.676963 0.4487855
000020 19 58 04 bf
       -0.51696926

weight f4 [9]
000000 21 5b 47 3f 12 4f ce 3f f4 96 a3 3f d3 e3 73 3f
       0.77873427 1.611788 1.2780442 0.9526951
000010 2c c1 a7 3f 6c e3 4c 3f bc de 85 3f 05 42 e2 3f
       1.3105826 0.8003452 1.0458598 1.7676398
000020 39 08 c1 3f
       1.5080634

bias f4 [9]
000000 75 e3 7f 3f e1 06 59 3f d8 f2 84 3f bc d3 0a 3f
       0.99956447 0.8477612 1.038661 0.5422933
000010 0b 00 3e 3e cd 93 93 3f b7 4e 48 3f 75 11 e5 3d
       0.18554704 1.152948 0.7824511 0.1118497
000020 01 d0 1c 3f
       0.6125489

running_mean f4 [9]
000000 84 91 41 3f df 37 75 bf 1e d3 a0 bd ae 28 77 3f
       0.75612664 -0.9578838 -0.078527674 0.9654645
000010 c0 05 c1 3d b8 93 6e bb 2a 1c 84 bf c4 0e e3 3e
       0.09424925 -0.0036403965 -1.0321095 0.44347203
000020 e6 13 dd bc
       -0.026987027

running_var f4 [9]
000000 b8 f6 26 3f 8c a3 32 3f b9 c5 91 3f f9 62 f0 3e
       0.6522021 0.697808 1.1388465 0.4695051
000010 83 9d b8 3e e2 4e a7 3e 4e 7d 42 41 08 c1 9b 3e
       0.36057672 0.3267737 12.155592 0.3042071
000020 69 6a d0 3f
       1.6282474

weight f4 [9, 9]
000000 45 83 cf 3c 1e 9f 31 be 2d 61 a7 be ac fe c6 3e
       0.025331149 -0.17345855 -0.32691327 0.38866174
000010 65 58 98 3e 87 56 64 3e 9f e8 fd 3e 5d af 83 3e
       0.2975494 0.22298633 0.49591538 0.2571973
000020 56 7f 2b bf 10 88 57 3e 5a a9 e7 be 6e 50 ef bb
       -0.66991174 0.21047997 -0.45246392 -0.007303289
000030 b3 3d 8f be b2 77 0e 3f bd cc e2 3e 9c 61 42 bf
       -0.2797676 0.5565139 0.44296828 -0.7593019
000040 e9 bd 6e bd 64 21 47 3d f9 66 ad be 4a 87 a9 3e
       -0.05828658 0.04861583 -0.33867624 0.3311103
000050 d2 46 09 bf 5d a8 df bd b2 1f 84 bd 51 7e 3e bf
       -0.5362369 -0.109207846 -0.06451358 -0.74411494
000060 56 cd bf 3e 18 08 8e 3e f9 23 ca 3d 8a c7 ed be
       0.37461346 0.2774055 0.098701425 -0.464413
000070 da c0 e0 be 5f 46 86 bf 2c ab 12 3f ec 0d 14 3f
       -0.43897134 -1.0490226 0.5729244 0.57833743
000080 be 96 84 be 0a 72 a3 be 18 85 93 3f a3 b1 f5 bc
       -0.25896257 -0.31922942 1.1524992 -0.02999193
000090 03 70 ee 3e 85 20 20 3f 91 e4 7a bc 19 49 57 be
       0.46569833 0.6254962 -0.015313284 -0.21023978
0000a0 82 7b 86 be 8e 20 d8 3e c4 35 86 be 5c 60 28 be
       -0.26266104 0.42212337 -0.26212895 -0.16443008
0000b0 5d a7 8d be b0 96 e5 be b9 32 7d bd fe a3 fa 3e
       -0.2766675 -0.44841528 -0.06181595 0.4895324
0000c0 a9 6c f9 be a5 4e 54 3f 42 73 d7 be c0 5e d8 3d
       -0.48715714 0.829325 -0.42080122 0.10564947
0000d0 8a 1d 15 bf 1a 4d 28 be 89 2e 58 bc 37 69 02 3f
       -0.582482 -0.16435662 -0.013194689 0.50941795
0000e0 ca 84 34 3f d1 c5 f7 be ba 73 83 3e d9 1b a3 3d
       0.7051512 -0.4839311 0.2567423 0.07964296
0000f0 a9 19 2f be 35 b8 b0 3e ea 4b 71 3f 5b b1 d3 3c
       -0.17099632 0.3451554 0.9425646 0.025841406
000100 30 30 45 3d 9e f1 de 3e 7d f8 42 3e 0d c7 7b be
       0.04814166 0.43543714 0.19040103 -0.2458765
000110 b7 d8 08 be e8 65 4e 3f fd b3 f1 be d9 9b 61 3d
       -0.1336392 0.80624247 -0.47207633 0.05508027
000120 82 66 26 bf b9 74 04 bf b8 54 15 3e e8 f9 e8 3c
       -0.65000165 -0.51740605 0.14583099 0.028439477
000130 6b 12 1c 3f e9 a9 a0 be 54 00 30 3e ba 9f 9d 3e
       0.60965604 -0.3137963 0.17187625 0.30785924
000140 09 6e 48 3e
       0.19573225

bias f4 [9]
000000 13 1d 55 3f b8 23 3e 3f be 5c 69 bf fb d8 42 3e
       0.8324749 0.7427325 -0.9115714 0.19028084
000010 c8 bc ff 3e 44 20 bc be b3 9f 11 3e 5f 3f b8 3e
       0.49948716 -0.36743367 0.14221077 0.35985848
000020 72 c8 38 bf
       -0.72180855

weight f4 [9, 9]
000000 22 fc 88 3e 48 a1 ed bc 81 20 5a 3d 6e da 7b 3d
       0.26754862 -0.029007569 0.053253654 0.061487608
000010 dd c7 2b 3d dc 5b ea bd 92 da d4 3d 19 2e 86 3e
       0.04193865 -0.11443302 0.103932515 0.26207045
000020 4c 06 b0 3e b2 88 57 3e 1e 12 5a bc a2 b4 3b 3e
       0.34379804 0.21048239 -0.013309984 0.18330625
000030 72 bb 44 bc 3d da 80 be 94 f0 5e bd 12 42 15 3e
       -0.012007581 -0.25166503 -0.054428652 0.14575985
000040 bb d8 00 bd 0d 65 c2 bd 10 4e 1d 3c 07 70 3c 3d
       -0.03145669 -0.0949193 0.009601131 0.046005275
000050 e6 bb 06 3d e0 27 20 3e 0a 76 cf 3e c9 4a dc bd
       0.032894038 0.15640211 0.40519744 -0.10756452
000060 82 9d 56 3d 5f f9 74 be cc d1 50 be c8 4a ac bd
       0.052396305 -0.23923253 -0.20392531 -0.08412701
000070 3e 2e 0e bc 5b 78 c5 bd b3 0a 84 bd 19 5b 52 be
       -0.008678017 -0.096420966 -0.06447353 -0.20542563
000080 49 d3 a5 3d 5d 2d 07 bd b2 5d 84 3e 2a 28 9c 3d
       0.0809694 -0.033002246 0.25852734 0.07624848
000090 a4 9c 61 be 5f ac 7e bd d9 06 71 3e 8d 6b 95 bd
       -0.2203241 -0.062176105 0.23537768 -0.07295904
0000a0 13 1a e2 3d ee a7 d0 be 8b f2 67 3d 6d 4b 54 bd
       0.110401295 -0.4075312 0.05662779 -0.051829744
0000b0 3d 14 d6 be 6e 77 8d be 7a 51 f2 3b 3a e2 a0 3e
       -0.41812316 -0.2763018 0.0073949667 0.31422597
0000c0 9d aa 25 ba ca 60 c3 3e 00 52 06 bf e7 d5 42 3c
       -0.0006319674 0.38159782 -0.5246887 0.011891819
0000d0 c0 1b 7b 3d 4d 22 76 be 13 51 f3 bd ab ce c3 be
       0.06130576 -0.24036522 -0.11880698 -0.38243613
0000e0 9e 92 1d be 89 3f b9 bd 8c 8c 18 be 55 14 04 be
       -0.15387961 -0.090453215 -0.14897364 -0.12898381
0000f0 30 fd 68 3d b0 5a 11 3e ce 08 20 be d5 98 03 3f
       0.056882083 0.14194751 -0.15628359 0.5140508
000100 84 53 dd 3e 0c 17 a6 be e5 7a 8c 3e 90 66 6b 3f
       0.4322778 -0.32439458 0.2743751 0.9195337
000110 7e e3 d1 be 9a dd 02 3f bd fc 78 bd 7c 0d 93 bf
       -0.40993875 0.5111939 -0.060787905 -1.148849
000120 73 dc 78 bd e0 8d 09 40 62 af 0f bf c2 9f 0b 40
       -0.06075711 2.1492844 -0.5612699 2.1816258
000130 55 e9 a4 be c1 fe b7 bf d0 3e 0b 3f 7d e6 f9 bf
       -0.32209268 -1.437462 0.5439272 -1.9523464
000140 e7 2a 1a 3f
       0.60221714

bias f4 [9]
000000 de 9d 2f be 5d 3b 78 3e 41 33 7d be 4c 37 99 be
       -0.17150065 0.24241395 -0.24726583 -0.29925
000010 dc 15 dc be 2d 08 f3 be 40 22 05 bf ea 09 22 3f
       -0.42985427 -0.47467175 -0.52005386 0.6329638
000020 24 4e 30 3f
       0.68869233

weight f4 [9, 9]
000000 1f 55 2a 3f f9 bc 83 bf fa fa 76 3f b1 92 ab 3f
       0.66536134 -1.0292045 0.9647671 1.3404142
000010 0e 45 41 bf c9 61 ac be 5a a3 33 bf 9b a4 37 bf
       -0.75495994 -0.33668354 -0.7017113 -0.71735543
000020 15 8f 0a 3e c3 4a da 3d 70 91 4f bf ee 41 de 3e
       0.13531144 0.10658791 -0.81081295 0.43409675
000030 85 0d 34 3f b1 e1 0f bd c0 ab b6 be 99 26 62 bf
       0.7033313 -0.035127345 -0.3567791 -0.88340145
000040 77 2d 8c bf 33 41 00 3e 32 bc 26 be 36 c2 9f be
       -1.0951375 0.12524872 -0.16282728 -0.3120286
000050 f3 66 37 3d d6 13 1c 3f 80 15 49 be d3 e3 30 be
       0.044775914 0.6096777 -0.19637108 -0.17274408
000060 cc eb 3b bf 2b dd 95 3e dc b9 8f 3b 2d b3 7f be
       -0.7340667 0.292703 0.00438617 -0.24970694
000070 81 53 81 be 4d 18 bc 3e 56 47 f2 3e 48 79 24 be
       -0.2525902 0.3673729 0.4732005 -0.1606189
000080 46 40 f3 be 41 da 3d bf 5e 0d 1f 3d ff 47 00 bd
       -0.47509974 -0.74161154 0.038831107 -0.03131866
000090 6b b9 44 3f 76 72 0d 3f c7 25 a2 be d7 6e d9 3e
       0.76845425 0.5525278 -0.31669447 0.42467377
0000a0 43 35 0a bf 29 1c f7 3e be 55 8a bf 99 82 ca 3d
       -0.5398752 0.48263672 -1.0807416 0.09888191
0000b0 a0 f8 51 3f 7a e2 2e 3f 2f 37 0f 3f 9e 6d b8 be
       0.82019997 0.68314326 0.5594358 -0.3602113
0000c0 54 a2 3f 3f e5 1d 0c bf e1 da 0c 3f 1e 33 85 bf
       0.7485707 -0.54733115 0.5502148 -1.0406225
0000d0 47 ea 84 3e e6 eb d9 3e bd f6 c3 3e c6 a8 27 bf
       0.2595999 0.4256279 0.38274184 -0.654919
0000e0 83 9a 18 be d0 a3 cb 3e b2 aa 35 3e 5c 80 a1 be
       -0.14902692 0.39773417 0.17740896 -0.31543243
0000f0 53 49 45 bf 89 c0 8c bf 01 d0 45 bd 2c 7b 8a 3f
       -0.7706501 -1.0996257 -0.04829407 1.0818839
000100 35 78 b4 3f 6e 3a cd bd eb eb 5d 3f ca 2d b7 3e
       1.4099184 -0.1002091 0.8668811 0.35777122
000110 c7 04 ad be c6 c4 82 bf a7 ad 93 bc b1 22 2e bf
       -0.33792707 -1.02163 -0.01802714 -0.68021685
000120 58 b8 c2 3f ea b8 70 3f 83 71 1a bf 6c 4f 03 3f
       1.5212507 0.94032156 -0.60329455 0.51293063
000130 8d 77 42 3f 16 b2 5f bf 48 c3 89 be 22 ef d2 3e
       0.7596367 -0.8738111 -0.269068 0.4119807
000140 ab c4 4a bf
       -0.7920634

bias f4 [9]
000000 e3 56 19 bf 0a 9d 7b bf e4 bd 25 3e c5 e4 99 3e
       -0.59898204 -0.982865 0.16185719 0.3005735
000010 1f ac a8 3f 50 52 6e 3f 30 97 92 be 45 de 89 3f
       1.3177527 0.9309435 -0.28630972 1.0770956
000020 ff 98 98 3f
       1.1921691
