encoders_and_tools/training_3di_gpu_9f/encoder.pt (torch, 4744 bytes, 6 tensors)

weight f4 [9, 9]
0	0xbf590cd0	-0.84785175
1	0xbf111a7a	-0.56681025
2	0x3f28831f	0.65825075
3	0xbf2e41c8	-0.68069124
4	0x3eeedf77	0.46654865
5	0x3ecc71ac	0.39930475
6	0x3dc68b61	0.09694553
7	0x3f03506e	0.512946
8	0xbb7831d8	-0.0037871506
9	0x3e943803	0.28948984
10	0x3d690108	0.05688575
11	0x3ea7eaf1	0.32796434
12	0xbe8792ad	-0.26479092
13	0xbe810018	-0.25195384
14	0xbe9750d8	-0.29553866
15	0xbe31634e	-0.17323038
16	0x3d175f3d	0.03695606
17	0x3db2e649	0.0873533
18	0x3e7aafc2	0.24481109
19	0x3df0a9ab	0.117511116
20	0x3f09e845	0.5387004
21	0xbed4a0b0	-0.41528845
22	0x3e11e47e	0.14247319
23	0x3e0e1b28	0.13877547
24	0x3df39fb0	0.11895692
25	0x3da50af7	0.08058732
26	0x3e057910	0.13034463
27	0x3e2cc72c	0.16872853
28	0x3cab4662	0.020907585
29	0x3d346aa7	0.044047024
30	0x3d70fead	0.058836628
31	0x3e159c07	0.14610301
32	0x3e0e75fe	0.13912198
33	0x3dd975c4	0.10618165
34	0xbdc88cc6	-0.097924754
35	0xbe0b258e	-0.13588545
36	0xbf878396	-1.0587032
37	0xbf00cf61	-0.50316435
38	0x3d5cd9f2	0.053918786
39	0x3ca7f4bb	0.020502439
40	0xbddb0f27	-0.106962495
41	0xbd7cf982	-0.061761387
42	0xbc0598b7	-0.008154086
43	0xbe55a681	-0.20864297
44	0xbe1bee5b	-0.15227644
45	0xbfb90eee	-1.4457681
46	0xbe64aa47	-0.2233058
47	0x3f535653	0.82553595
48	0xbf32458f	-0.6963739
49	0x3e03d1e3	0.12873034
50	0x3e13e4f9	0.14442815
51	0x3d86d6e6	0.065839574
52	0x3dffd447	0.124916606
53	0x3db7252e	0.08942638
54	0x3ec1c65d	0.37846652
55	0x3ecd2216	0.40065068
56	0x3f116955	0.5680135
57	0xbea182f9	-0.31545237
58	0xbe5dfc20	-0.2167821
59	0xbe9eb8b7	-0.310003
60	0xbdf3e97b	-0.11909767
61	0x3d107200	0.03526497
62	0xbd80c4bc	-0.06287524
63	0xbf428f59	-0.7599998
64	0xbe46e7b5	-0.19424327
65	0xbca7f303	-0.02050162
66	0x3e1275f2	0.14302805
67	0x3d81f53b	0.06345602
68	0xbcc9fa04	-0.02465535
69	0x3d0b5368	0.03401509
70	0xbea712b7	-0.32631466
71	0xbda529ef	-0.08064639
72	0x3ecbc9bf	0.39802358
73	0x3d4e462f	0.0503599
74	0xbdd921a3	-0.10602119
75	0x3d1de71e	0.03855049
76	0xbed36b6a	-0.41292888
77	0xbe8dbeab	-0.2768453
78	0xbe6b817f	-0.22998618
79	0x3cdcd3fb	0.026956549
80	0xbe027073	-0.12738208

bias f4 [9]
0	0xc04fcb4e	-3.2467837
1	0xbeffcc22	-0.49960428
2	0xbf81e51e	-1.0148046
3	0x3f8fb645	1.1227499
4	0x3fc90edc	1.570766
5	0xbf7f7d98	-0.99801016
6	0xbf60ef4c	-0.8786514
7	0x401236e7	2.284601
8	0xbf057bc9	-0.52142006

weight f4 [9, 9]
0	0xbf32ceba	-0.6984669
1	0x3f978e6d	1.184034
2	0x3f4ee4c2	0.80817807
3	0x3f0456de	0.5169505
4	0x3d0d3371	0.034472886
5	0xbef3b576	-0.4759938
6	0x3f5e187e	0.8675612
7	0xbff526a1	-1.9152414
8	0xbf3d33de	-0.7390727
9	0x3eba0c99	0.36337736
10	0x3ef96d09	0.48716
11	0x3f8eafe1	1.1147424
12	0xbf4c41fd	-0.7978819
13	0x3f296038	0.66162443
14	0xbff0321b	-1.8765291
15	0xbdd86f04	-0.105680496
16	0xbeb608e1	-0.3555365
17	0xbfcf41be	-1.6191938
18	0xbfd8bb3d	-1.693214
19	0x3e30a98a	0.17252174
20	0x3f81d162	1.0142024
21	0x3f8d4559	1.1036788
22	0xbe962c41	-0.29330638
23	0x3fcd6d1e	1.6048925
24	0x3ef85dd4	0.48509085
25	0xbfa9d371	-1.3267652
26	0x3f8b248c	1.0870528
27	0xbfbb9801	-1.4655763
28	0x3ed67346	0.41884822
29	0x3f09fff6	0.5390619
30	0x3f995f0b	1.198213
31	0x3ea9a71e	0.33135313
32	0xbdf164b1	-0.117867835
33	0x3ef9fd2e	0.48825973
34	0xbf9c2cd3	-1.2201179
35	0x3f0eb290	0.55741215
36	0x3f8fe034	1.1240296
37	0xbf257b37	-0.64641136
38	0x3e9927a4	0.29913056
39	0x3e9e3a20	0.3090372
40	0xc021ebbd	-2.5300133
41	0x3e080325	0.1328245
42	0xc04c709a	-3.1943727
43	0x3fc783cc	1.5587096
44	0x403fc2aa	2.9962564
45	0xbe871882	-0.26385885
46	0xbcdc1936	-0.02686749
47	0x3e6ac319	0.22925986
48	0x3fc13723	1.5094951
49	0x3e3e9f3f	0.18615435
50	0x3ef0c748	0.4702704
51	0x3f22d01a	0.6359879
52	0xbe3d8c7f	-0.18510626
53	0x3ee84167	0.45362398
54	0xbf16e799	-0.5894714
55	0xc00dd33f	-2.2160184
56	0x3fc5a41b	1.5440706
57	0x3f42c701	0.76084906
58	0xbead6063	-0.338626
59	0xbfb9a115	-1.4502283
60	0xbf107672	-0.56430733
61	0x3e1d4611	0.1535876
62	0x3f27f4e8	0.6560807
63	0x3e743ead	0.23852034
64	0x3f4bd03e	0.7961463
65	0x3ead958a	0.33903152
66	0x4021e1de	2.5294108
67	0xc03cb20c	-2.948367
68	0xbf8be1ed	-1.0928322
69	0xbf43af7e	-0.76439655
70	0x3e833fff	0.25634763
71	0x3f63c84f	0.8897752
72	0xbfc0eab0	-1.5071621
73	0xbf9af899	-1.2107116
74	0x3fb99def	1.4501323
75	0x3f5bcc58	0.8585868
76	0xbfeaffdc	-1.8359332
77	0x3fba1d24	1.4540143
78	0xbf6826cc	-0.906842
79	0xbf21695d	-0.63051397
80	0x400d9d00	2.2127075

bias f4 [9]
0	0x3ec003d2	0.37502915
1	0x3fd63974	1.6736283
2	0xbfca65da	-1.5812333
3	0xbf5244e2	-0.82136357
4	0xbec5df42	-0.38646895
5	0xbfa9431b	-1.3223604
6	0xbf0425d6	-0.51620233
7	0xbf239bc9	-0.63909584
8	0xbf163eda	-0.58689654

weight f4 [2, 9]
0	0x3f003cd5	0.5009282
1	0xbdc2322d	-0.094822265
2	0x3f478b79	0.77947193
3	0x3e321dbd	0.17394157
4	0x3e94cff5	0.2906491
5	0x3f083b64	0.5321562
6	0xbf7a3978	-0.9774394
7	0xbe5166df	-0.20449398
8	0xbf1e23be	-0.6177329
9	0x3ec51371	0.38491395
10	0x3f342b87	0.7037892
11	0x3c09e291	0.008415834
12	0xbf07541a	-0.52862704
13	0x3e882b69	0.2659562
14	0x3dc1fd6b	0.09472164
15	0x3dfd76d5	0.12376181
16	0xbf01715f	-0.50563616
17	0x3e9b5cc7	0.3034422

bias f4 [2]
0	0xbf713d5d	-0.9423426
1	0xbef3e243	-0.47633561
