encoders_and_tools/training_3di_gpu_10f/decoder.pt (torch, 7727 bytes, 12 tensors)

weight f4 [10, 2]
0	0x3f635055	0.8879445
1	0x3e044c9d	0.1291985
2	0xbe8090fb	-0.2511061
3	0xbf551562	-0.8323575
4	0x3e0e338d	0.13886853
5	0x3f35fa8f	0.7108545
6	0xbead365c	-0.33830535
7	0x3ebd6d19	0.36997297
8	0xbbf638b8	-0.0075140856
9	0xbf7137d2	-0.942258
10	0x3e5ce635	0.21572192
11	0x3f0e4c30	0.55585
12	0xbf9dcd16	-1.2328212
13	0xbe1115d8	-0.14168489
14	0xbe96824f	-0.29396293
15	0x3e6983c1	0.22804166
16	0xbe2f30bd	-0.17108436
17	0xbf1d85a8	-0.6153207
18	0xbe1f55de	-0.155601
19	0xbf9c5948	-1.2214746

bias f4 [10]
0	0xbf311101	-0.6916657
1	0x3f23184d	0.63708955
2	0x3e6c280f	0.23062156
3	0x3e798c77	0.2436999
4	0xbe508b4d	-0.20365639
5	0xbeb7a4eb	-0.3586801
6	0x3d9a339e	0.075293764
7	0x3ea5260e	0.32255596
8	0x3ef7638a	0.4831813
9	0x3eda8f76	0.42687577

weight f4 [10]
0	0x3fae3023	1.360844
1	0x3fd4f8aa	1.6638386
2	0x3f97f172	1.1870558
3	0x3fa3acaf	1.2787074
4	0x3eeedfc1	0.46655086
5	0x3f5ca159	0.86183697
6	0x3f6e9a64	0.9320433
7	0x3faa6504	1.3312078
8	0x3fa8489a	1.3147156
9	0x3f37fa78	0.7186656

bias f4 [10]
0	0x3e3dc293	0.18531255
1	0x3e741296	0.23835215
2	0x3f7d025d	0.9883173
3	0x3f3e1603	0.7425234
4	0x3f8b2a8b	1.0872358
5	0x3f9e94c5	1.2389151
6	0x3f1db8f3	0.61610335
7	0x3e5ac7d6	0.21365294
8	0x3f84516c	1.0337348
9	0x3f4ce01d	0.8002947

running_mean f4 [10]
0	0xbef7a794	-0.4837004
1	0x3f379193	0.71706504
2	0x3e110539	0.14162149
3	0x3dbcb3ef	0.09214007
4	0xbd289888	-0.04116109
5	0xbecbc05e	-0.39795202
6	0xbe615d92	-0.2200835
7	0x3e53db97	0.20689236
8	0x3f0b957e	0.5452498
9	0x3f1962c1	0.5991631

running_var f4 [10]
0	0x3f61d4d5	0.8821538
1	0x3f96ea22	1.1790202
2	0x3f53e3d1	0.82769495
3	0x3ea41a0a	0.32051116
4	0x3fb298c7	1.3952874
5	0x3f0c43f5	0.54791194
6	0x3fd63aa7	1.6736649
7	0x3e28cff7	0.16485582
8	0x3f23e1ca	0.640164
9	0x4018ff96	2.3905997

weight f4 [10, 10]
0	0x3e4dc4e0	0.20094633
1	0x3f6797fe	0.90466297
2	0x3ec2c980	0.38044357
3	0xbe097b58	-0.13425958
4	0xbd3566c1	-0.044287447
5	0xbec5d288	-0.38637185
6	0xbe0c7b33	-0.13718872
7	0xbed62613	-0.41825923
8	0xbf216a8d	-0.6305321
9	0xbecaccd5	-0.396094
10	0x3f1104ed	0.5664814
11	0x3e450a3f	0.1924219
12	0xbeaaea84	-0.33382046
13	0x3e8bca8d	0.2730297
14	0xbe072d0b	-0.13200776
15	0xbf4b52fb	-0.79423493
16	0x3eb78312	0.35842186
17	0x3ee2bbec	0.44283998
18	0xbe55d718	-0.20882833
19	0xbec87033	-0.391481
20	0xbdd0799c	-0.10179445
21	0xbe530be2	-0.20610002
22	0xbbb1d533	-0.0054270267
23	0x3eec6e3d	0.46177855
24	0xbdb07666	-0.08616333
25	0x3e8aaeaa	0.27086383
26	0xbe202d3c	-0.15642256
27	0xbdc6a086	-0.09698586
28	0x3ea7bc7b	0.32760987
29	0x3e6e7efc	0.23290628
30	0xbf0af6f9	-0.542831
31	0xbe25b887	-0.16183673
32	0x3f96e301	1.1788026
33	0x3e8efa29	0.27925232
34	0x3e094515	0.13405259
35	0xbf4d6f7f	-0.80248255
36	0xbe8f2109	-0.2795489
37	0xbe05e806	-0.13076791
38	0xbdbc0456	-0.091805145
39	0x3e886173	0.26636848
40	0xbe84a1f6	-0.25904816
41	0x3d4729da	0.048623897
42	0x3f02bd78	0.51070356
43	0xbee16d9f	-0.44028947
44	0x3f22b57d	0.6355818
45	0xbe2a4607	-0.16628276
46	0x3f079f2e	0.52977264
47	0x3e63d636	0.22249684
48	0xbeb62fb9	-0.35583284
49	0xbe60b104	-0.21942526
50	0xbecb630e	-0.3972401
51	0xbdf4acd6	-0.11947028
52	0xbe2bb029	-0.16766419
53	0xbec18506	-0.377968
54	0xbea5fe27	-0.32420465
55	0x3e0a994f	0.13535045
56	0x3eaddf89	0.33959606
57	0xbcb21ffa	-0.021743763
58	0xbee4aba6	-0.44662207
59	0x3e669295	0.22516854
60	0x3e770077	0.24121271
61	0xbf569a3a	-0.8382908
62	0x3f1307fe	0.5743407
63	0xbe992a91	-0.29915288
64	0x3e0ac283	0.13550763
65	0xbf29b7c9	-0.6629606
66	0xbe7b22f4	-0.24525052
67	0x3edbd94d	0.42939225
68	0x3e8d1bd5	0.27560297
69	0x3e3da370	0.18519378
70	0xbed3c463	-0.4136077
71	0xbe1d250c	-0.15346164
72	0xbe198b17	-0.14994465
73	0xbef5b02d	-0.47985974
74	0xbe139c12	-0.14415005
75	0x3e0b22bc	0.13587469
76	0x3dea3062	0.114350095
77	0xbcdc8a73	-0.026921486
78	0xbe89eeef	-0.26940104
79	0x3dfeda94	0.12444034
80	0x3dfb1da2	0.122615114
81	0x3f02955a	0.5100914
82	0xbc52be0b	-0.012862693
83	0xbf12b935	-0.57313854
84	0xbe0341ec	-0.12818116
85	0x3d7c307c	0.061569676
86	0x3c3d8857	0.0115681505
87	0x3e9981ea	0.2998193
88	0xbcb949c5	-0.022618184
89	0xbf28f6a7	-0.6600136
90	0xbf37b2b7	-0.7175707
91	0x3dbae92c	0.09126505
92	0x3eaaf71e	0.3339166
93	0xbe535e6c	-0.20641488
94	0x3f599f3a	0.85008585
95	0x3c22e6a3	0.009942683
96	0x3dbb8384	0.09155944
97	0xbed1e99d	-0.40998545
98	0xbf23f121	-0.6403981
99	0x3d062843	0.03275324

bias f4 [10]
0	0xbedbc2e1	-0.42922118
1	0xbf2176e0	-0.63072014
2	0x3da7b2ac	0.08188376
3	0xbf2a0735	-0.6641725
4	0x3f50609f	0.8139743
5	0xbd6fdf2c	-0.058562443
6	0xbeca6591	-0.39530614
7	0xbe0e10fb	-0.13873665
8	0xbe803ee6	-0.25047988
9	0x3eddd51b	0.4332665

weight f4 [10, 10]
0	0x3e06efb8	0.13177383
1	0x3cc71aee	0.024304833
2	0x3d1c4016	0.038147055
3	0x3da9f6f9	0.082990594
4	0x3ec25a1a	0.37959367
5	0xbe6f0bce	-0.23344347
6	0xbc232ee7	-0.009959913
7	0xbe0e4350	-0.13892865
8	0x3e679dda	0.2261881
9	0x3d443abc	0.047907576
10	0x3e08a2bc	0.13343328
11	0x3cecc6cf	0.028903393
12	0xbe2458bb	-0.16049473
13	0x3d91970b	0.07108887
14	0x3df1b934	0.11802903
15	0xbc853b2e	-0.01626357
16	0xbd9019d2	-0.07036175
17	0xbe7f1280	-0.24909401
18	0xbe2e5895	-0.17025979
19	0xbd2019fb	-0.039087277
20	0x3c7cc9ae	0.015428944
21	0x3e83789f	0.25677964
22	0x3e7e4421	0.24830677
23	0x3b8c39b6	0.0042793406
24	0x3d0dca42	0.034616716
25	0x3c56542c	0.013081592
26	0xbe6f3b82	-0.23362544
27	0x3d7998a0	0.06093657
28	0xbe4fec35	-0.2030495
29	0x3e670f13	0.22564344
30	0x3b87cead	0.0041445107
31	0xbdf057c8	-0.11735493
32	0x3d247fa1	0.04016078
33	0xbd172c54	-0.03690751
34	0xbdc6130b	-0.09671601
35	0xbe3dc89d	-0.18533559
36	0x3e481216	0.19538149
37	0x3e668776	0.22512612
38	0x3e1dc42d	0.15406866
39	0xbdfb28c3	-0.12263634
40	0x3dd3f7ea	0.1035002
41	0xbe88ec7d	-0.26742926
42	0x3da451fd	0.080234505
43	0x3d0c658c	0.03427653
44	0xbefea443	-0.49734697
45	0xbd0b0da6	-0.033948563
46	0xbe07e23d	-0.13269897
47	0xbe42d60f	-0.1902697
48	0xbed08809	-0.40728787
49	0xbd0c2bd4	-0.034221485
50	0x3e31ea31	0.17374493
51	0xbe4f08a8	-0.20218146
52	0x3e8ba163	0.27271566
53	0xbcf8762c	-0.030329786
54	0xbefee830	-0.4978652
55	0xbc1a88ff	-0.0094320765
56	0xbdbec3f7	-0.09314721
57	0xbea1182f	-0.31463763
58	0xbec7292b	-0.38898596
59	0x3e1df1af	0.15424226
60	0xbd9147e3	-0.070937894
61	0xbe6a5f41	-0.22887899
62	0x3e4e813d	0.20166488
63	0x3dffee90	0.12496674
64	0xbee7a205	-0.452408
65	0xbe373b56	-0.17893729
66	0x3d63e01e	0.055633657
67	0xbd55e50c	-0.05222039
68	0x3ec3d5a0	0.3824892
69	0x3d34e6b4	0.04416533
70	0xbf0216ad	-0.5081585
71	0xbe81836f	-0.25295588
72	0x3ede632b	0.43435034
73	0xbecb128e	-0.39662594
74	0x3f1e6715	0.6187604
75	0xbf0bb37a	-0.54570735
76	0xbf1fbbd8	-0.62396
77	0xbf0818e7	-0.53163
78	0xbf5741ac	-0.8408458
79	0x3f0b181c	0.54333663
80	0x3ef9f187	0.48817083
81	0x3dd0c5a5	0.10193948
82	0xbe20984a	-0.15683094
83	0xbfee3989	-1.8611308
84	0xbecea8b9	-0.403631
85	0x3e1afa6e	0.15134594
86	0xbfc3d6fa	-1.5299981
87	0x3c5baf4f	0.013408496
88	0x3f5f0436	0.871158
89	0xbf0f38ec	-0.5594623
90	0x3f2a9ffb	0.6665036
91	0x3ed87ffc	0.42285144
92	0xbe90da8b	-0.28291735
93	0xbfe10c81	-1.7581941
94	0xbeb7e460	-0.35916424
95	0xbe499224	-0.19684654
96	0xbf88d5de	-1.0690267
97	0xbda7fbb4	-0.082023054
98	0x3e9cd414	0.30630553
99	0xbce0b613	-0.02743057

bias f4 [10]
0	0xbe95dc16	-0.29269475
1	0x3d7e916e	0.06215041
2	0x3da1cf9e	0.07900928
3	0xbdd1f2d0	-0.10251391
4	0xbe7598bb	-0.23984043
5	0xbed925fe	-0.42411798
6	0x3debef60	0.115202665
7	0x3f49c8ea	0.78822196
8	0x3e6d826c	0.23194283
9	0x3e6da5b0	0.23207736

weight f4 [10, 10]
0	0x3ff72f85	1.9311377
1	0x3fa2fb7c	1.2732997
2	0xbf03c90d	-0.51478654
3	0x3fa01409	1.2506114
4	0x3e34850b	0.17628877
5	0x3ebbdd61	0.36692336
6	0xbe875dbd	-0.26438704
7	0x3e64406a	0.22290197
8	0x3eea6523	0.45780286
9	0x3f818bdf	1.012081
10	0x3f94d4ae	1.1627405
11	0x3f2817ec	0.656615
12	0xbdc4a4d2	-0.096017495
13	0x3f52a36d	0.8228062
14	0xbf01ee36	-0.50754106
15	0x3f70ee04	0.94113183
16	0xbecbbb47	-0.3979132
17	0x3ef51fae	0.47875732
18	0x3ddb6e21	0.10714365
19	0x3f0d2d2b	0.55147046
20	0x3f425688	0.75913286
21	0xbe71dbeb	-0.23619048
22	0xbf054c5c	-0.5206964
23	0x3ec3fcb3	0.38278732
24	0xbeae51da	-0.34046823
25	0x3e0f7b72	0.14011934
26	0x3e22bc1c	0.1589207
27	0x3e328374	0.17432958
28	0xbcc127e1	-0.023578586
29	0x3eb5d789	0.35516003
30	0x3f746c7b	0.9547803
31	0xbe8cdf7f	-0.27514264
32	0xbd341ce7	-0.043972876
33	0x3ea156de	0.31511587
34	0xbebce735	-0.36895147
35	0x3d436678	0.047705144
36	0x3d95624d	0.0729414
37	0x3f0f2349	0.55913216
38	0x3dd3afc7	0.10336261
39	0x3e6fd8ef	0.23422597
40	0x3ef2d164	0.47425377
41	0x3e732cc8	0.23747551
42	0xbf28b61b	-0.6590287
43	0xbcaad35d	-0.020852739
44	0x3f65ef1e	0.8981799
45	0x3f18c0d2	0.5966922
46	0x3f263977	0.64931434
47	0x3f123092	0.5710536
48	0x3f82988c	1.0202804
49	0x3f508fb7	0.8146929
50	0x3ee4e964	0.44709313
51	0x3e00f3b5	0.12592967
52	0xbf6e520f	-0.9309396
53	0x3d4d8e59	0.05018458
54	0x3f6ae7a8	0.9175973
55	0x3f158c23	0.58416957
56	0x3ef89361	0.4854994
57	0x3f0d194f	0.5511674
58	0x3f600fae	0.87523925
59	0x3f11dffe	0.5698241
60	0x3ed719e6	0.42011946
61	0x3cd323ad	0.025773847
62	0xbee1ffbb	-0.4414042
63	0x3f340854	0.7032521
64	0xbc9a5f2a	-0.018844206
65	0x3f45d2af	0.772746
66	0xbf1c30ae	-0.6101178
67	0x3ec5abfb	0.38607773
68	0x3ecab2f9	0.3958967
69	0x3efa0596	0.48832387
70	0x3ecdca5f	0.4019346
71	0xbe8bf2f3	-0.27333793
72	0xbe5cd673	-0.21566181
73	0xbeaf8164	-0.34278405
74	0x3fa5b499	1.2945739
75	0x3e23648d	0.15956326
76	0x3dc96222	0.098331705
77	0x3f0aefdd	0.5427225
78	0x3e0be176	0.13660225
79	0x3fab0820	1.3361855
80	0xbc2d8530	-0.010590836
81	0xbf845f13	-1.0341514
82	0x3e253c31	0.16136242
83	0xbee163a3	-0.4402133
84	0x3f88239f	1.0635871
85	0x3e3b9b15	0.18320878
86	0xbe3decf0	-0.18547416
87	0x3e1dd13f	0.15411852
88	0x3ee17ba1	0.44039634
89	0x3f05d0a1	0.5227147
90	0x3dd019cc	0.1016117
91	0xbf55b517	-0.83479446
92	0x3dc54c90	0.09633744
93	0xbd4a525f	-0.04939496
94	0x3f1ffaf4	0.624923
95	0x3de79b73	0.113089465
96	0xbf29e030	-0.6635771
97	0x3e15616b	0.14587943
98	0xbde3a3e2	-0.111152425
99	0x3eed1cf1	0.46311143

bias f4 [10]
0	0xbf4a50a8	-0.7902932
1	0xbf6349ec	-0.8878467
2	0xbe053a08	-0.13010418
3	0xbe550f21	-0.20806552
4	0x3f3961bb	0.7241475
5	0x3f132fd9	0.57494885
6	0xbe62496f	-0.22098325
7	0x3ed14406	0.4087221
8	0x3f68b917	0.90907425
9	0x3f46494a	0.7745558
