encoders_and_tools/training_3di_gpu_10f/encoder.pt (torch, 4872 bytes, 6 tensors)

weight f4 [10, 10]
-0.18509795 -0.16934592 0.22826757 -0.28566864 -0.12102476 -0.17385514 -0.11317529 0.31440747
0.1581595 0.04983151 1.0882546 0.22004123 -0.8622158 0.7241057 -0.49963954 -0.29493833
-0.20466056 -0.45732206 0.20086767 -0.18112487 0.15555477 -0.027660131 -0.07953808 0.26609004
0.35559902 0.12897089 0.21535629 0.007124648 -0.06087221 -0.24458133 0.3542135 0.03701028
0.35503674 -0.30587682 -0.6227493 -0.37532404 -0.066917896 0.10548299 -0.07656352 -0.065322004
0.65475464 0.44058582 0.49589735 -0.35865763 -0.34439564 -0.3463935 -0.19921806 -0.058563072
0.12479205 0.059609797 -0.7513341 -0.20936541 -0.029463537 0.27311632 0.011736404 -0.23717564
-0.08862564 -0.25798592 -0.36619645 0.006161595 1.0714946 0.19728433 -0.2823087 0.3402269
0.016185038 -0.10068656 0.051598497 -0.19200808 -0.3274853 0.08900241 -0.049053967 -0.0033669386
0.197251 0.028437765 0.27675882 0.059411287 0.0967684 -0.0073077017 -0.013497222 -0.2607528
0.77383345 0.069567904 0.35096207 -0.3415083 -0.26312757 -0.08124481 0.022221265 0.23798712
0.02005893 -0.21372144 1.8820935 0.4856918 -0.27464682 0.20139357 0.1225173 0.047080167
0.1976783 0.13958587 0.06888783 0.12569167
00000000: 518a 3dbe 0469 2dbe f9be 693e 2943 92be
00000010: d4db f7bd 1507 32be 72c8 e7bd 04fa a03e
00000020: 90f4 213e 201c 4c3d ed4b 8b3f 7d52 613e
00000030: 2dba 5cbf fe5e 393f c1d0 ffbe 2802 97be
00000040: 8a92 51be 1e26 eabe 41b0 4d3e cc78 39be
00000050: c049 1f3e 8097 e2bc dce4 a2bd f43c 883e
00000060: 1311 b63e f210 043e 5c86 5c3e e175 e93b
00000070: 2355 79bd 8773 7abe 795b b53e 1798 173d
00000080: 60c7 b53e e39b 9cbe 806c 1fbf 792a c0be
00000090: 400c 89bd 7707 d83d 56cd 9cbd 8bc7 85bd
000000a0: 009e 273f 7794 e13e 42e6 fd3e f9a1 b7be
000000b0: a054 b0be 7d5a b1be d2ff 4bbe d5df 6fbd
000000c0: f992 ff3d 6729 743d 6e57 40bf e363 56be
000000d0: 845d f1bc e7d5 8b3e 0c4a 403c 2cde 72be
000000e0: 5c81 b5bd bb16 84be 1a7e bbbe 35e7 c93b
000000f0: bc26 893f e704 4a3e c48a 90be 3832 ae3e
00000100: 7c96 843c c134 cebd f258 533d c49d 44be
00000110: 27ac a7be e546 b63d d0ec 48bd dba7 5cbb
00000120: 2bfc 493e 51f6 e83c 55b3 8d3e 4059 733d
00000130: 832e c63d 7275 efbb 7423 5dbc 6481 85be
00000140: f319 463f 9e79 8e3d 4db1 b33e 2dda aebe
00000150: a8b8 86be ae63 a6bd 5f09 b63c e5b2 733e
00000160: a052 a43c cbd9 5abe 71e8 f03f 98ac f83e
00000170: 829e 8cbe 1e3a 4e3e 5aea fa3d 22d7 403d
00000180: 2e6c 4a3e 99ef 0e3e 1015 8d3d 51b5 003e

bias f4 [10]
-2.0002964 2.897972 -0.12585771 -1.042192 -0.21051401 2.0212314 1.3011426 0.4652872
-2.238983 -1.5803683
00000000: db04 00c0 6078 3940 d8e0 00be 8c66 85bf
00000010: fc90 57be db5b 0140 d78b a63f 203a ee3e
00000020: 7f4b 0fc0 8249 cabf

weight f4 [10, 10]
-0.34515554 -0.39259255 0.48381382 0.36679342 0.764533 0.61901003 -0.38660267 0.8577244
-0.31566596 0.019514397 -0.60395235 -1.0168813 1.2268922 2.0642724 0.54335386 -0.55528444
0.5104506 -0.17499283 -1.4555613 -0.45517632 0.18732071 -0.7884969 0.23961787 -0.24939433
-0.2651931 2.3007252 -1.0909861 1.1529721 -0.7089431 2.2365003 -1.1549522 -0.826623
1.9761325 0.7917008 -1.2659838 -1.3265601 -1.0097715 -0.0053665754 -0.26115045 -0.346504
-0.26977012 -0.5021803 0.76249 0.22554226 0.53779006 0.30917618 -1.777656 -0.21609558
-0.6728158 0.8664093 -2.3276646 -0.15465173 0.45555034 0.29980212 0.471087 -0.08666012
0.7498928 -2.2378535 -0.75285256 -0.39045835 -1.0061568 -1.2887727 0.13675837 1.0412416
1.3729986 -0.12743428 -0.22020505 -0.16218367 -0.87936944 0.20890956 -0.50692254 0.30649275
0.35428387 2.0012422 -0.6010034 -2.16452 1.6159661 0.85282224 -3.1094613 -1.1151282
0.56772643 -0.6944319 -1.3810283 -0.4401863 -0.52993166 1.396594 -0.097257085 1.8981892
0.23959398 1.0187693 -2.0754168 -0.8534163 0.97463185 0.43889788 0.20965452 -1.7776983
-0.8091638 1.2555555 -0.36702982 -1.3648201
00000000: 3ab8 b0be e401 c9be 72b6 f73e 59cc bb3e
00000010: 6fb8 433f 7177 1e3f c9f0 c5be d493 5b3f
00000020: f89e a1be a8dc 9f3c 9f9c 1abf 2b29 82bf
00000030: ce0a 9d3f 0a1d 0440 3d19 0b3f 1f27 0ebf
00000040: e4ac 023f 5231 33be d54f babf df0c e9be
00000050: 00d1 3f3e efda 49bf 635e 753e 3a61 7fbe
00000060: 64c7 87be 153f 1340 6fa5 8bbf 9794 933f
00000070: 4c7d 35bf d222 0f40 79d5 93bf 919d 53bf
00000080: e9f1 fc3f e7ac 4a3f c20b a2bf b9cc a9bf
00000090: 3140 81bf 19da afbb 83b5 85be f968 b1be
000000a0: 4f1f 8abe e38e 00bf 8b32 433f 8df4 663e
000000b0: 9cac 093f 574c 9e3e 3b8a e3bf 2948 5dbe
000000c0: a83d 2cbf 00cd 5d3f 75f8 14c0 065d 1ebe
000000d0: e53d e93e aa7f 993e 5132 f13e dc7a b1bd
000000e0: f9f8 3f3f fe38 0fc0 f2ba 40bf 28ea c7be
000000f0: bfc9 80bf 81f6 a4bf 630a 0c3e 6847 853f
00000100: 6bbe af3f 227e 02be 6f7d 61be 7a13 26be
00000110: 5b1e 61bf 63ec 553e adc5 01bf 9eec 9c3e
00000120: b264 b53e 5a14 0040 5cdb 19bf 7f87 0ac0
00000130: fad7 ce3f 8f52 5a3f 6a01 47c0 85bc 8ebf
00000140: 8556 113f 4ac6 31bf 89c5 b0bf 1960 e1be
00000150: 9aa9 07bf 98c3 b23f b92e c7bd ddf7 f23f
00000160: 2058 753e 0867 823f a1d3 04c0 7e79 5abf
00000170: 7981 793f 39b7 e03e adaf 563e 9e8b e3bf
00000180: 5c25 4fbf 0bb6 a03f 55eb bbbe 6db2 aebf

bias f4 [10]
-0.8441467 -0.9302449 -1.2934821 2.0340414 1.6655266 2.1802025 -0.4056545 0.1617822
-1.4124427 1.9647058
00000000: 001a 58bf 8824 6ebf d290 a5bf bc2d 0240
00000010: fa2f d53f 7088 0b40 f2b1 cfbe 3caa 253e
00000020: ecca b4bf 7b7b fb3f

weight f4 [2, 10]
-0.346432 -0.49857575 0.5536242 0.67518157 -0.3957498 0.32389826 -0.9450852 0.13358076
-0.6033294 -0.4219202 -0.02502372 0.51018196 -0.1458566 -0.25773048 -0.7502104 -0.44488153
0.35085496 0.5916022 0.32922447 0.44903117
00000000: 895f b1be 5245 ffbe 51ba 0d3f b3d8 2c3f
00000010: b89f cabe fed5 a53e 1bf1 71bf 65c9 083e
00000020: cc73 1abf ed05 d8be 8bfe ccbc 499b 023f
00000030: 6f5b 15be 40f5 83be ca0d 40bf 83c7 e3be
00000040: 43a3 b33e 3e73 173f 1c90 a83e 6ae7 e53e

bias f4 [2]
0.51076216 0.23812309
00000000: 4fc1 023f 8ad6 733e
