encoders_and_tools/training_3di_gpu_8f/decoder.pt (torch, 7215 bytes, 12 tensors)

weight f4 [8, 2]
-0.26597413 -0.6295793 -0.38779357 0.7087757 -0.6435857 -0.05124117 -0.49307457 0.055033416
0.14471437 -0.43944457 0.28020152 0.32766405 0.73502094 0.100442775 0.24485675 -0.5122932
00000000: c32d 88be 1c2c 21bf e18c c6be 5372 353f
00000010: 08c2 24bf 43e2 51bd 4574 fcbe b86a 613d
00000020: 0130 143e e1fe e0be 9376 8f3e 95c3 a73e
00000030: 552a 3c3f f1b4 cd3d babb 7a3e a625 03bf

bias f4 [8]
0.23821126 -0.64404535 -0.2725767 0.009996851 -0.076319434 -0.27338162 0.36740208 0.53670114
00000000: a7ed 733e 28e0 24bf 2c8f 8bbe d5c9 233c
00000010: 5d4d 9cbd adf8 8bbe 201c bc3e 3f65 093f

weight f4 [8]
1.0779995 0.7588845 1.1480048 0.7572942 1.2224172 0.97170746 1.2501087 0.78279865
00000000: e3fb 893f 4146 423f d2f1 923f 08de 413f
00000010: 2b78 9c3f d2c1 783f 9003 a03f 7e65 483f

bias f4 [8]
0.024854885 0.7139354 0.72887963 1.0677192 -0.18071385 0.7346883 0.8460461 0.66403425
00000000: 799c cb3c 78c4 363f db97 3a3f 06ab 883f
00000010: 0d0d 39be 8814 3c3f 7a96 583f 26fe 293f

running_mean f4 [8]
0.12993343 -0.7051383 -0.44716102 -0.11739837 -0.06398322 -0.17936686 0.5697291 0.57031274
00000000: 450d 053e f283 34bf 4af2 e4be 8e6e f0bd
00000010: a209 83bd f2ab 37be c4d9 113f 0400 123f

running_var f4 [8]
0.5587867 0.43930617 0.4410179 0.22836287 0.1606369 0.24235444 0.6017629 0.22416203
00000000: a50c 0f3f bdec e03e 19cd e13e f5d7 693e
00000010: 007e 243e c32b 783e 220d 1a3f bb8a 653e

weight f4 [8, 8]
0.030536722 0.19164696 0.23157741 -0.17724302 0.40419975 -0.39231178 0.25667125 -0.40936145
-0.12694483 0.072601475 0.13331541 -0.18874712 -0.14902307 -0.69100046 0.24728476 0.002593787
-0.19057222 0.35394618 -0.29900953 -0.53598946 -0.24290092 -0.024656454 0.08325761 -0.32940555
-0.6382006 0.29223853 -0.5779678 0.45377183 0.23642711 -0.07007011 -0.6602899 -0.006559054
-0.031599157 -0.29369062 -0.6605977 -0.4172471 -0.0002705598 0.3123358 -0.8871892 0.39934158
-0.32444364 0.5244845 -0.542073 0.29518172 -0.09090221 -0.68241 0.31559625 0.3925495
0.026835863 -0.5222761 -0.14438505 0.24913758 -0.43659353 -0.3099691 -0.057755396 -0.5293696
-0.46405312 -0.40686792 0.18680686 -0.26872134 -0.32860488 -0.22450814 -0.08009143 -0.4959098
00000000: 2628 fa3c 1a3f 443e a122 6d3e 327f 35be
00000010: 45f3 ce3e 17dd c8be 6a6a 833e d397 d1be
00000020: d3fd 01be 15b0 943d d683 083e ed46 41be
00000030: 8199 18be 68e5 30bf 3738 7d3e 86fc 293b
00000040: 5d25 43be 6f38 b53e c717 99be 9b36 09bf
00000050: 05bb 78be 55fc c9bc f782 aa3d d8a7 a8be
00000060: 1d61 23bf 4aa0 953e b3f5 13bf c854 e83e
00000070: f319 723e eb80 8fbd c208 29bf 55ed d6bb
00000080: 1e6e 01bd 9e5e 96be ee1c 29bf 69a1 d5be
00000090: ecd9 8db9 7aea 9f3e d51e 63bf 8076 cc3e
000000a0: 7a1d a6be 9e44 063f 4cc5 0abf 0f22 973e
000000b0: f02a babd 6cb2 2ebf d595 a13e 40fc c83e
000000c0: e2d6 db3c e3b3 05bf add9 13be ec1d 7f3e
000000d0: 3089 dfbe 45b4 9ebe ec90 6cbd c484 07bf
000000e0: 5f98 edbe fe50 d0be 4c4a 3f3e d895 89be
000000f0: e63e a8be 76e5 65be fa06 a4bd e4e7 fdbe

bias f4 [8]
-0.4573341 -0.20847219 0.28301752 0.2412364 -0.43897694 0.47123793 -0.5523314 -0.8480723
00000000: b227 eabe bc79 55be ace7 903e ad06 773e
00000010: 96c1 e0be 1946 f13e 9765 0dbf 441b 59bf

weight f4 [8, 8]
0.36470583 -0.14656177 0.15540335 0.11679235 -0.05845975 -0.10121131 -0.034546677 0.035599574
-0.09323324 0.17875008 0.0661977 0.029310277 -0.11337092 -0.10211466 -0.24437423 0.21581069
0.19377114 0.14925997 0.2672214 -0.06554055 0.028120596 0.15606067 -0.399902 0.05790057
-0.22184844 -0.2235505 -0.33949003 0.08251743 -0.02883725 -0.046329215 0.039607342 0.17218456
0.15478897 0.16470042 -0.17109796 0.22183402 -0.085091315 0.24426088 0.018306438 -0.0022860568
0.35294098 0.103605695 -0.12175852 0.33111164 -0.04807017 0.16388117 -0.10578143 0.010426753
-0.19136098 0.018236928 -0.29662472 0.15740053 -0.1652448 0.17453116 0.25080678 0.025608856
-0.9515006 -0.22052498 0.27156788 0.0046821577 -0.49708495 0.96570224 -0.3730424 -0.797948
00000000: b9ba ba3e 4a14 16be 0e22 1f3e d430 ef3d
00000010: 7e73 6fbd e047 cfbd d180 0dbd dcd0 113d
00000020: 12f1 bebd 430a 373e a992 873d 1b1c f03c
00000030: 032f e8bd 7e21 d1bd 3d3d 7abe 7afd 5c3e
00000040: f16b 463e 9bd7 183e 3ed1 883e 203a 86bd
00000050: 2a5d e63c 5ece 1f3e f4bf ccbe 2629 6d3d
00000060: 3d2c 63be 6cea 64be a3d1 adbe e6fe a83d
00000070: 193c ecbc b4c3 3dbd 4f3b 223d 2651 303e
00000080: 0081 1e3e 3aa7 283e 4e34 2fbe 7528 633e
00000090: 5b44 aebd 861f 7a3e 62f7 953c abd1 15bb
000000a0: aeb4 b43e 392f d43d 885c f9bd 7787 a93e
000000b0: 3ae5 44bd 77d0 273e efa3 d8bd f9d4 2a3c
000000c0: 22f4 43be 9c65 953c 32df 97be 9b2d 213e
000000d0: ef35 29be 4cb8 323e bf69 803e aac9 d13c
000000e0: 8b95 73bf 4dd1 61be f20a 8b3e c96c 993b
000000f0: eb81 febe 4338 773f 6aff bebe 5246 4cbf

bias f4 [8]
0.45797327 0.34720567 -0.013664653 -0.34446034 -0.016462823 0.03268001 -0.11575103 1.3102895
00000000: 797b ea3e f1c4 b13e b5e1 5fbc 1b5d b0be
00000010: 0bdd 86bc 79db 053d e00e edbd 91b7 a73f

weight f4 [8, 8]
0.62588996 0.7601053 1.0655459 0.18833587 0.34398964 0.1307059 1.1081369 0.9837059
-0.021241568 0.81893367 0.6235351 0.22386856 0.5668256 0.21995628 0.5937734 0.8091427
-0.23878461 0.4489564 -0.23432611 0.7855656 0.35192192 -0.12871578 0.15359835 0.41216183
0.124092594 0.45078245 -0.13668677 0.934565 0.35407975 -0.029974543 0.3587021 0.100474656
-0.79667693 -0.49431926 0.21282648 0.7759052 1.0629452 -1.0198439 0.3515283 -0.17326681
-0.9437495 -0.025579257 0.26461017 0.83448744 1.0163001 -1.2506845 0.033344768 -0.012421144
0.43200824 0.22115465 0.6609774 0.55947316 0.80311364 0.33817732 0.30610284 -0.1222578
-1.9936255 -0.96972144 -0.09391498 1.2112638 0.8827582 0.24959594 -0.31763917 -0.16343834
00000000: 533a 203f 4396 423f cf63 883f 1edb 403e
00000010: 691f b03e c4d7 053e 6ed7 8d3f 26d4 7b3f
00000020: cc02 aebc a3a5 513f ff9f 1f3f cd3d 653e
00000030: 7c1b 113f 383c 613e 8901 183f fa23 4f3f
00000040: f483 74be 9ddd e53e 2ff3 6fbe d41a 493f
00000050: 1c2f b43e 12ce 03be e348 1d3e e006 d33e
00000060: 4224 fe3d f5cc e63e 9ef7 0bbe a73f 6f3f
00000070: f149 b53e 2c8d f5bc cda7 b73e a8c5 cd3d
00000080: 05f3 4bbf 6a17 fdbe 2fef 593e b9a1 463f
00000090: 970e 883f 3f8a 82bf 84fb b33e db6c 31be
000000a0: 9199 71bf 978b d1bc fc7a 873e f8a0 553f
000000b0: 1f16 823f 6e16 a0bf 8694 083d 0e82 4bbc
000000c0: 2f30 dd3e 5d76 623e d135 293f a239 0f3f
000000d0: db98 4d3f 9425 ad3e 83b9 9c3e 4c62 fabd
000000e0: 1f2f ffbf aa3f 78bf 7f56 c0bd b10a 9b3f
000000f0: 71fc 613f 1496 7f3e 9aa1 a2be 615c 27be

bias f4 [8]
-0.5172424 -1.0501765 0.13307591 -0.24293587 0.64716595 0.7716888 -0.12836158 0.93309426
00000000: ff69 04bf 2f6c 86bf 0d45 083e 2ec4 78be
00000010: abac 253f 668d 453f 3871 03be 44df 6e3f
