encoders_and_tools/training_3di_gpu_8f/encoder.pt (torch, 4424 bytes, 6 tensors)

weight f4 [8, 8]
000000 92 3b 21 3f 41 95 8d 3f b7 b3 50 3e c0 75 4e 3c
       0.6298152 1.1061174 0.20381056 0.012601316
000010 80 a8 12 bf da 0f 4e bf bd 82 89 bd 12 ef a2 3d
       -0.5728836 -0.8049294 -0.067143895 0.07955755
000020 75 1b 28 bf b5 d3 c6 be 7f f4 ac 3f 32 0e a2 bf
       -0.65666896 -0.38833395 1.3512114 -1.2660582
000030 83 34 db 3e a9 e8 ea 3e 86 11 2b bc 7a b0 4b 3e
       0.428135 0.4588063 -0.01044119 0.19891539
000040 9d f9 14 40 b8 3c b5 3e 4f 87 84 bd 7f 36 a8 bd
       2.3277352 0.35397887 -0.064711206 -0.08213519
000050 36 96 98 3d ee 7a eb 3d 15 45 47 3d 7e f6 33 bc
       0.074505255 0.11498056 0.048649866 -0.010984061
000060 a4 17 f0 3e 47 eb 25 bf ac 70 e5 be 72 ae d1 3e
       0.46893036 -0.6481213 -0.44812524 0.40953404
000070 4d 11 2a 3d 27 e3 16 3e d7 fa 36 bd a6 df 48 bd
       0.041520406 0.14735089 -0.044672813 -0.049041413
000080 b6 39 aa 3e 8e fe 0e 3f 24 06 0a bf af b0 04 3f
       0.33247155 0.5585717 -0.5391562 0.518321
000090 ae 25 05 3f 1b 53 12 3f 59 41 70 bf e2 25 84 be
       0.5201062 0.5715806 -0.9384971 -0.25810152
0000a0 ed f7 6f 3e ac 34 b2 be e8 bf 20 bd d4 a1 18 be
       0.2343442 -0.3480581 -0.039245516 -0.14905483
0000b0 fd 49 b6 3d 01 d5 44 3e 14 e9 79 3e 92 91 16 3f
       0.08900831 0.1922188 0.24405318 0.5881587
0000c0 f0 6d 0a bf 12 ab 6a be 4e 7c 5f 3f 74 e5 34 bf
       -0.54074 -0.2291682 0.8729905 -0.7066262
0000d0 28 ac 3a 3f bd fc 3d 3f e0 14 51 bc 10 e5 b8 3e
       0.7291894 0.74213773 -0.012761325 0.3611226
0000e0 02 a6 e0 3f 55 46 03 bd 58 30 da 3d 2a ef 4a 3c
       1.7550662 -0.032049496 0.10653752 0.012386123
0000f0 4e 35 e1 be bb 30 83 be 57 d0 6e bc 94 9d 26 3e
       -0.4398598 -0.25623116 -0.014576039 0.16271049

bias f4 [8]
000000 5a 76 da bf ae f6 b7 bf 2c b9 28 be 2d 54 99 3f
       -1.7067368 -1.4372156 -0.16476887 1.1978813
000010 f4 03 66 3f 5e eb 70 c0 35 6d 0e c0 32 50 66 bf
       0.8984978 -3.7643657 -2.2254155 -0.8996612

weight f4 [8, 8]
000000 85 85 ac 3f 0c 81 65 bd 33 3c b1 bf 93 34 af 3e
       1.3478247 -0.05603127 -1.3846496 0.34219798
000010 82 33 17 bf 08 31 a0 bd 17 38 13 3d 59 10 e3 be
       -0.5906297 -0.07821852 0.035942163 -0.4434841
000020 71 f1 bc bf 1e 6b a4 bf 08 60 24 3f 3a 31 a7 bf
       -1.4761182 -1.284519 0.6420903 -1.3061898
000030 13 b4 07 bf f5 5e 9a 3e be d3 d8 3f 74 12 9c be
       -0.53009146 0.3015057 1.6939619 -0.3048283
000040 5a b7 d6 be 11 22 1c 3f 9d 97 d0 bf 45 20 38 3f
       -0.4193676 0.6098948 -1.6296269 0.7192424
000050 5d 0e 3c bf 6a ef 9f 3d 87 ca 9d 3e a9 6b a0 bd
       -0.73459417 0.078093365 0.3081858 -0.078330345
000060 65 dc 95 3f 4f 0b e7 3e 2e e7 0d 3f 42 a9 05 3f
       1.1707884 0.45125815 0.5543088 0.5221139
000070 df c5 0e 3f 1b 89 65 3e b2 08 d5 bd d1 1a 49 3f
       0.5577068 0.22415583 -0.10402049 0.78556544
000080 9d a6 ac 3f 06 28 94 bf 88 91 4f 3f 2b 4c c0 bd
       1.3488346 -1.1574714 0.8108144 -0.09389528
000090 2e 85 57 c0 8d 61 1a 3f 96 ef 90 3f e4 5f 7d bf
       -3.3675036 0.603051 1.1323116 -0.9897444
0000a0 6e 69 88 3f 04 32 c4 3f 7a d0 48 be 8d 75 8c bf
       1.0657175 1.5327764 -0.19610777 -1.0973374
0000b0 18 b2 20 3f 1d 51 a0 bf c2 b1 d1 bf 45 85 03 3f
       0.6277175 -1.2524754 -1.6382372 0.5137523
0000c0 fc 86 7e 3f 10 15 0c c0 13 3c 14 3f 6d 0b 78 bd
       0.9942472 -2.1887856 0.57904166 -0.06055777
0000d0 00 5c 15 be f5 d7 f6 bf 5b 0c e7 3f f0 ba 1d bf
       -0.14585876 -1.9284655 1.8050646 -0.6161337
0000e0 60 13 56 3e aa aa 99 3c d2 81 a6 3f 48 df 12 3e
       0.20905828 0.018758137 1.3008368 0.14342988
0000f0 84 cc 05 be b3 8d 44 3f 5e 78 96 3e eb 8b bc 3e
       -0.13066298 0.76778716 0.29388708 0.368255

bias f4 [8]
000000 d2 c6 bc 3f 54 f2 fb 3f 4c 1b 0f be 1e 1b 6d bf
       1.4748175 1.9683328 -0.13975257 -0.926195
000010 b2 2a ad 3e 52 e6 10 3f a8 d3 b8 be 24 47 e3 bf
       0.33821636 0.5660144 -0.3609898 -1.7756085

weight f4 [2, 8]
000000 00 bd b4 3e 99 8c f8 3e 6e 23 67 3d 17 d0 b3 3e
       0.35300446 0.48544767 0.056430273 0.35119697
000010 21 c2 0b bf ab 1e 25 3f cb 28 90 bf 55 18 32 be
       -0.5459309 0.6449992 -1.1262449 -0.17392094
000020 b4 97 b6 be a7 d6 e3 3e 23 70 49 bf b8 dc ef 3e
       -0.35662615 0.44499704 -0.7868673 0.46848083
000030 1c fc 43 be 33 05 ac 3e 4b 79 ae bc ce 8f 9f be
       -0.19139141 0.33597717 -0.021298071 -0.31164402

bias f4 [2]
000000 67 8b 76 bf c0 c2 90 be
       -0.9630646 -0.28273582
